# parameters
nc: 1  # number of classes
depth_multiple: 0.33  # model depth multiple
width_multiple: 0.50  # layer channel multiple

# anchors
anchors:
  - [10,13, 16,30, 33,23]   # P3/8
  - [30,61, 62,45, 59,119]  # P4/16
  - [116,90, 156,198, 373,326]  # P5/32

# YOLOv5 backbone
backbone:
  # [from, number, module, args]
  # Two Stream
  [
    ######### TransformerBlock One #############
    # stream one
    [-1, 1, Focus, [64, 3]],    # 0-P1/2
    [-1, 1, Conv, [128, 3, 2]], # 1-P2/4
    [-1, 3, C3, [128]],   # 2-P2/4
    [-1, 1, Conv, [256, 3, 2]],  # 3-P3/8
    [-1, 9, C3, [256]],   # 4-P3/8
    # stream two
    [-4, 1, Focus, [64, 3]],    # 5-P1/2
    [-1, 1, Conv, [128, 3, 2]], # 6-P2/4
    [-1, 3, C3, [128]],   # 7-P2/4
    [-1, 1, Conv, [256, 3, 2]],  # 8-P3/8
    [-1, 9, C3, [256]],   # 9-P3/8

    # stream two
    [-7, 1, Focus, [64, 3]],    # 5-P1/2 10
    [-1, 1, Conv, [128, 3, 2]], # 6-P2/4 11
    [-1, 3, C3, [128]],   # 7-P2/4 12
    [-1, 1, Conv, [256, 3, 2]],  # 8-P3/8 13
    [-1, 9, C3, [256]],   # 9-P3/8 14
    
    ######### TransformerBlock Two #############
   # transformer fusion
    [[4,9,14], 1, GPT, [256]],   # 10-P3/8 15
    [[4,15], 1, Add2, [256,0]],    # 11-P3/8 stream one x+trans[0] 16
    [[9,15], 1, Add2, [256,1]],    # 12-P3/8 stream two x+trans[1] 17
    [[14,15], 1, Add2, [256,2]],    # 12-P3/8 stream two x+trans[1] 18


   ######### TransformerBlock Three #############
   # stream one
    [16, 1, Conv, [512, 3, 2]],   # 13-P4/16 19
    [-1, 9, C3, [512]],   # 14-P4/16 20
   # stream two
    [17, 1, Conv, [512, 3, 2]],   # 15-P4/16 21
    [-1, 9, C3, [512]],   # 16-P4/16 22
   # stream two
    [18, 1, Conv, [512, 3, 2]],   # 15-P4/16 23
    [-1, 9, C3, [512]],   # 16-P4/16 24
   # transformer fusion
    [[20,22,24], 1, GPT, [512]],   # 17-P3/8 25
    [[20,25], 1, Add2, [512,0]],    # 18-P3/8 stream one x+trans[0] 26
    [[22,25], 1, Add2, [512,1]],    # 19-P3/8 stream two x+trans[1] 27
    [[24,25], 1, Add2, [512,2]],    # 19-P3/8 stream two x+trans[1] 28


    ######### TransformerBlock Four #############
    # stream one
    [26, 1, Conv, [1024, 3, 2]],    # 20-P5/32 29
    [-1, 1, SPP, [1024, [5, 9, 13]]],   # 21-P5/32 30
    [-1, 3, C3, [1024, False]],   # 22-P5/32 31
    # stream two
    [27, 1, Conv, [1024, 3, 2]],    # 23-P5/32 32
    [-1, 1, SPP, [1024, [5, 9, 13]]],   # 24-P5/32 33
    [-1, 3, C3, [1024, False]],   # 25-P5/32 34
    # stream two
    [28, 1, Conv, [1024, 3, 2]],    # 23-P5/32 35
    [-1, 1, SPP, [1024, [5, 9, 13]]],   # 24-P5/32 36
    [-1, 3, C3, [1024, False]],   # 25-P5/32 37
    # transformer fusion
    [[31,34,37], 1, GPT, [1024]],    # 26-P5/32 38
    [[31,38], 1, Add2, [1024,0]],    # 27-P5/32 stream one x+trans[0] 39
    [[34,38], 1, Add2, [1024,1]],    # 28-P5/32 stream two x+trans[1] 40
    [[37,38], 1, Add2, [1024,2]],    # 28-P5/32 stream two x+trans[1] 41


    ######### Add Block #############
    [[16,17,18], 1, Add3, [1]],   # 29-P3/8 fusion backbone P3 42
    [[26,27,28], 1, Add3, [1]],   # 30-P4/16 fusion backbone P4 43
    [[39,40,41], 1, Add3, [1]],   # 31-P5/32 fusion backbone P5 44

  ]


# YOLOv5 head
head:
  [
    [-1, 1, Conv, [512, 1, 1]],   # 32 45
    [-1, 1, nn.Upsample, [None, 2, 'nearest']],   # 33 46
    [[-1,43], 1, Concat, [1]],    # 34 cat backbone P4 47
    [-1, 3, C3, [512, False]],    # 35 48

    [-1, 1, Conv, [256, 1, 1]],   # 36 49
    [-1, 1, nn.Upsample, [None, 2, 'nearest']],   # 37 50
    [[-1,42], 1, Concat, [1]],    # 38 cat backbone P3 51
    [-1, 3, C3, [256, False]],    # 39 (P3/8-small) 52

    [-1, 1, Conv, [256, 3, 2]],   # 40 53
    [[-1,49], 1, Concat, [1]],    # 41 cat head P4 54
    [-1, 3, C3, [512, False]],    # 42 (P4/16-medium) 55

    [-1, 1, Conv, [512, 3, 2]],    # 43 56
    [[-1,45], 1, Concat, [1]],     # 44 cat head P5 57
    [-1, 3, C3, [1024, False]],     # 45 (P5/32-large) 58

    [[39, 42, 45], 1, Detect, [nc, anchors]],   # Detect(P3, P4, P5) 59
  ]
