# parameters
nc: 1  # number of classes
depth_multiple: 0.33  # model depth multiple
width_multiple: 0.50  # layer channel multiple

# anchors
anchors:
  - [10,13, 16,30, 33,23]   # P3/8
  - [30,61, 62,45, 59,119]  # P4/16
  - [116,90, 156,198, 373,326]  # P5/32

# YOLOv5 backbone
backbone:
  # [from, number, module, args]
  # Two Stream
  [
    ######### TransformerBlock One #############
    # stream one
    [-1, 1, Focus, [64, 3]],    # 0-P1/2
    [-1, 1, Conv, [128, 3, 2]], # 1-P2/4
    [-1, 3, C3, [128]],   # 2-P2/4
    # stream two
    [-4, 1, Focus, [64, 3]],    # 3-P1/2
    [-1, 1, Conv, [128, 3, 2]], # 4-P2/4
    [-1, 3, C3, [128]],   # 5-P2/4
    # stream two
    [-7, 1, Focus, [64, 3]],    # 3-P1/2 6
    [-1, 1, Conv, [128, 3, 2]], # 4-P2/4 7
    [-1, 3, C3, [128]],   # 5-P2/4 8
    # transformer fusion
    [[2,5,8], 1, GPT, [128]], # 6-P2/4 9
    [[2,9], 1, Add2, [128,0]],  # 7-P2/4 stream one:x+trans[0] 10
    [[5,9], 1, Add2, [128,1]],  # 8-P2/4 stream two:x+trans[1] 11
    [[8,9], 1, Add2, [128,2]],  # 8-P2/4 stream two:x+trans[2] 12

    ######### TransformerBlock Two #############
   # stream one
    [10, 1, Conv, [256, 3, 2]],  # 9-P3/8 13
    [-1, 9, C3, [256]],   # 10-P3/8 14
   # stream two
    [11, 1, Conv, [256, 3, 2]],  # 11-P3/8 15
    [-1, 9, C3, [256]],   # 12-P3/8 16
   # stream two
    [12, 1, Conv, [256, 3, 2]],  # 11-P3/8 17
    [-1, 9, C3, [256]],   # 12-P3/8 18
   # transformer fusion
    [[14,16,18], 1, GPT, [256]],   # 13-P3/8 19
    [[14,19], 1, Add2, [256,0]],    # 14-P3/8 stream one x+trans[0] 20
    [[16,19], 1, Add2, [256,1]],    # 15-P3/8 stream two x+trans[1] 21
    [[18,19], 1, Add2, [256,2]],    # 15-P3/8 stream two x+trans[1] 22


   ######### TransformerBlock Three #############
   # stream one
    [20, 1, Conv, [512, 3, 2]],   # 16-P4/16 23
    [-1, 9, C3, [512]],   # 17-P4/16 24
   # stream two
    [21, 1, Conv, [512, 3, 2]],   # 18-P4/16 25
    [-1, 9, C3, [512]],   # 19-P4/16 26
   # stream two
    [22, 1, Conv, [512, 3, 2]],   # 18-P4/16 27
    [-1, 9, C3, [512]],   # 19-P4/16 28
   # transformer fusion
    [[24,26,28], 1, GPT, [512]],   # 20-P3/8 29
    [[24,29], 1, Add2, [512,0]],    # 21-P3/8 stream one x+trans[0] 30
    [[26,29], 1, Add2, [512,1]],    # 22-P3/8 stream two x+trans[1] 31
    [[28,29], 1, Add2, [512,2]],    # 22-P3/8 stream two x+trans[1] 32


    ######### TransformerBlock Four #############
    # stream one
    [-2, 1, Conv, [1024, 3, 2]],    # 23-P5/32 33?
    [-1, 1, SPP, [1024, [5, 9, 13]]],   # 24-P5/32 34
    [-1, 3, C3, [1024, False]],   # 25-P5/32 35
    # stream two
    [31, 1, Conv, [1024, 3, 2]],    # 26-P5/32 36
    [-1, 1, SPP, [1024, [5, 9, 13]]],   # 27-P5/32 37
    [-1, 3, C3, [1024, False]],   # 28-P5/32 38
    # stream two
    [32, 1, Conv, [1024, 3, 2]],    # 26-P5/32 39
    [-1, 1, SPP, [1024, [5, 9, 13]]],   # 27-P5/32 40
    [-1, 3, C3, [1024, False]],   # 28-P5/32 41
    # transformer fusion
    [[35,38,41], 1, GPT, [1024]],    # 29-P5/32 42
    [[35,42], 1, Add2, [1024,0]],    # 30-P5/32 stream one x+trans[0] 43
    [[38,42], 1, Add2, [1024,1]],    # 31-P5/32 stream two x+trans[1] 44
    [[41,42], 1, Add2, [1024,2]],    # 31-P5/32 stream two x+trans[1] 45


    ######### Add Block #############
    [[20,21,22], 1, Add3, [1]],   # 32-P3/8 fusion backbone P3 46
    [[30,31,32], 1, Add3, [1]],   # 33-P4/16 fusion backbone P4 47
    [[43,44,45], 1, Add3, [1]],   # 34-P5/32 fusion backbone P5 48

  ]


# YOLOv5 head
head:
  [
    [-1, 1, Conv, [512, 1, 1]],   # 35 49
    [-1, 1, nn.Upsample, [None, 2, 'nearest']],   # 36 50
    [[-1,47], 1, Concat, [1]],    # 37 cat backbone P4 51
    [-1, 3, C3, [512, False]],    # 38 52

    [-1, 1, Conv, [256, 1, 1]],   # 39 53
    [-1, 1, nn.Upsample, [None, 2, 'nearest']],   # 40 54
    [[-1,46], 1, Concat, [1]],    # 41 cat backbone P3 55
    [-1, 3, C3, [256, False]],    # 42 (P3/8-small) 56

    [-1, 1, Conv, [256, 3, 2]],   # 43 57
    [[-1,53], 1, Concat, [1]],    # 44 cat head P4 58
    [-1, 3, C3, [512, False]],    # 45 (P4/16-medium) 59

    [-1, 1, Conv, [512, 3, 2]],    # 46 60
    [[-1,49], 1, Concat, [1]],     # 47 cat head P5 61
    [-1, 3, C3, [1024, False]],     # 48 (P5/32-large) 62

    [[56, 59, 62], 1, Detect, [nc, anchors]],   # Detect(P3, P4, P5) 63
  ]
